…
To enable the following instructions: AVX2 FMA, in other operations, rebuild TensorFlow with the appropriate compiler flags.
2025-07-10 13:02:06.635113: E tensorflow/core/util/util.cc:131] oneDNN supports DT_HALF only on platforms with AVX-512. Falling back to the default Eigen-based implementation if present.
Model: "functional_1"
┏━━━━━━━━━━━━━━━━━━━━━━━━━━━━━━━┳━━━━━━━━━━━━━━━━━━━━━━━━━━━┳━━━━━━━━━━━━━┳━━━━━━━━━━━━━━━━━━━━━━━━━━━━━━━━┓
┃ Layer (type)                  ┃ Output Shape              ┃     Param # ┃ Connected to                   ┃
┡━━━━━━━━━━━━━━━━━━━━━━━━━━━━━━━╇━━━━━━━━━━━━━━━━━━━━━━━━━━━╇━━━━━━━━━━━━━╇━━━━━━━━━━━━━━━━━━━━━━━━━━━━━━━━┩
│ image_input (InputLayer)      │ (None, 128, 128, 3)       │           0 │ -                              │
├───────────────────────────────┼───────────────────────────┼─────────────┼────────────────────────────────┤
│ rescaling (Rescaling)         │ (None, 128, 128, 3)       │           0 │ image_input[0][0]              │
├───────────────────────────────┼───────────────────────────┼─────────────┼────────────────────────────────┤
│ normalization (Normalization) │ (None, 128, 128, 3)       │           7 │ rescaling[0][0]                │
├───────────────────────────────┼───────────────────────────┼─────────────┼────────────────────────────────┤
│ rescaling_1 (Rescaling)       │ (None, 128, 128, 3)       │           0 │ normalization[0][0]            │
├───────────────────────────────┼───────────────────────────┼─────────────┼────────────────────────────────┤
│ stem_conv_pad (ZeroPadding2D) │ (None, 129, 129, 3)       │           0 │ rescaling_1[0][0]              │
├───────────────────────────────┼───────────────────────────┼─────────────┼────────────────────────────────┤
│ stem_conv (Conv2D)            │ (None, 64, 64, 32)        │         864 │ stem_conv_pad[0][0]            │
├───────────────────────────────┼───────────────────────────┼─────────────┼────────────────────────────────┤
│ stem_bn (BatchNormalization)  │ (None, 64, 64, 32)        │         128 │ stem_conv[0][0]                │
├───────────────────────────────┼───────────────────────────┼─────────────┼────────────────────────────────┤
│ stem_activation (Activation)  │ (None, 64, 64, 32)        │           0 │ stem_bn[0][0]                  │
├───────────────────────────────┼───────────────────────────┼─────────────┼────────────────────────────────┤
│ block1a_dwconv                │ (None, 64, 64, 32)        │         288 │ stem_activation[0][0]          │
│ (DepthwiseConv2D)             │                           │             │                                │
├───────────────────────────────┼───────────────────────────┼─────────────┼────────────────────────────────┤
│ block1a_bn                    │ (None, 64, 64, 32)        │         128 │ block1a_dwconv[0][0]           │
│ (BatchNormalization)          │                           │             │                                │
├───────────────────────────────┼───────────────────────────┼─────────────┼────────────────────────────────┤
│ block1a_activation            │ (None, 64, 64, 32)        │           0 │ block1a_bn[0][0]               │
│ (Activation)                  │                           │             │                                │
├───────────────────────────────┼───────────────────────────┼─────────────┼────────────────────────────────┤
│ block1a_se_squeeze            │ (None, 32)                │           0 │ block1a_activation[0][0]       │
│ (GlobalAveragePooling2D)      │                           │             │                                │
├───────────────────────────────┼───────────────────────────┼─────────────┼────────────────────────────────┤
│ block1a_se_reshape (Reshape)  │ (None, 1, 1, 32)          │           0 │ block1a_se_squeeze[0][0]       │
├───────────────────────────────┼───────────────────────────┼─────────────┼────────────────────────────────┤
│ block1a_se_reduce (Conv2D)    │ (None, 1, 1, 8)           │         264 │ block1a_se_reshape[0][0]       │
├───────────────────────────────┼───────────────────────────┼─────────────┼────────────────────────────────┤
│ block1a_se_expand (Conv2D)    │ (None, 1, 1, 32)          │         288 │ block1a_se_reduce[0][0]        │
├───────────────────────────────┼───────────────────────────┼─────────────┼────────────────────────────────┤
│ block1a_se_excite (Multiply)  │ (None, 64, 64, 32)        │           0 │ block1a_activation[0][0],      │
│                               │                           │             │ block1a_se_expand[0][0]        │
├───────────────────────────────┼───────────────────────────┼─────────────┼────────────────────────────────┤
│ block1a_project_conv (Conv2D) │ (None, 64, 64, 16)        │         512 │ block1a_se_excite[0][0]        │
├───────────────────────────────┼───────────────────────────┼─────────────┼────────────────────────────────┤
│ block1a_project_bn            │ (None, 64, 64, 16)        │          64 │ block1a_project_conv[0][0]     │
│ (BatchNormalization)          │                           │             │                                │
├───────────────────────────────┼───────────────────────────┼─────────────┼────────────────────────────────┤
│ block2a_expand_conv (Conv2D)  │ (None, 64, 64, 96)        │       1,536 │ block1a_project_bn[0][0]       │
├───────────────────────────────┼───────────────────────────┼─────────────┼────────────────────────────────┤
│ block2a_expand_bn             │ (None, 64, 64, 96)        │         384 │ block2a_expand_conv[0][0]      │
│ (BatchNormalization)          │                           │             │                                │
├───────────────────────────────┼───────────────────────────┼─────────────┼────────────────────────────────┤
│ block2a_expand_activation     │ (None, 64, 64, 96)        │           0 │ block2a_expand_bn[0][0]        │
│ (Activation)                  │                           │             │                                │
├───────────────────────────────┼───────────────────────────┼─────────────┼────────────────────────────────┤
│ block2a_dwconv_pad            │ (None, 65, 65, 96)        │           0 │ block2a_expand_activation[0][… │
│ (ZeroPadding2D)               │                           │             │                                │
├───────────────────────────────┼───────────────────────────┼─────────────┼────────────────────────────────┤
│ block2a_dwconv                │ (None, 32, 32, 96)        │         864 │ block2a_dwconv_pad[0][0]       │
│ (DepthwiseConv2D)             │                           │             │                                │
├───────────────────────────────┼───────────────────────────┼─────────────┼────────────────────────────────┤
│ block2a_bn                    │ (None, 32, 32, 96)        │         384 │ block2a_dwconv[0][0]           │
│ (BatchNormalization)          │                           │             │                                │
├───────────────────────────────┼───────────────────────────┼─────────────┼────────────────────────────────┤
│ block2a_activation            │ (None, 32, 32, 96)        │           0 │ block2a_bn[0][0]               │
│ (Activation)                  │                           │             │                                │
├───────────────────────────────┼───────────────────────────┼─────────────┼────────────────────────────────┤
│ block2a_se_squeeze            │ (None, 96)                │           0 │ block2a_activation[0][0]       │
│ (GlobalAveragePooling2D)      │                           │             │                                │
├───────────────────────────────┼───────────────────────────┼─────────────┼────────────────────────────────┤
│ block2a_se_reshape (Reshape)  │ (None, 1, 1, 96)          │           0 │ block2a_se_squeeze[0][0]       │
├───────────────────────────────┼───────────────────────────┼─────────────┼────────────────────────────────┤
│ block2a_se_reduce (Conv2D)    │ (None, 1, 1, 4)           │         388 │ block2a_se_reshape[0][0]       │
├───────────────────────────────┼───────────────────────────┼─────────────┼────────────────────────────────┤
│ block2a_se_expand (Conv2D)    │ (None, 1, 1, 96)          │         480 │ block2a_se_reduce[0][0]        │
├───────────────────────────────┼───────────────────────────┼─────────────┼────────────────────────────────┤
│ block2a_se_excite (Multiply)  │ (None, 32, 32, 96)        │           0 │ block2a_activation[0][0],      │
│                               │                           │             │ block2a_se_expand[0][0]        │
├───────────────────────────────┼───────────────────────────┼─────────────┼────────────────────────────────┤
│ block2a_project_conv (Conv2D) │ (None, 32, 32, 24)        │       2,304 │ block2a_se_excite[0][0]        │
├───────────────────────────────┼───────────────────────────┼─────────────┼────────────────────────────────┤
│ block2a_project_bn            │ (None, 32, 32, 24)        │          96 │ block2a_project_conv[0][0]     │
│ (BatchNormalization)          │                           │             │                                │
├───────────────────────────────┼───────────────────────────┼─────────────┼────────────────────────────────┤
│ block2b_expand_conv (Conv2D)  │ (None, 32, 32, 144)       │       3,456 │ block2a_project_bn[0][0]       │
├───────────────────────────────┼───────────────────────────┼─────────────┼────────────────────────────────┤
│ block2b_expand_bn             │ (None, 32, 32, 144)       │         576 │ block2b_expand_conv[0][0]      │
│ (BatchNormalization)          │                           │             │                                │
├───────────────────────────────┼───────────────────────────┼─────────────┼────────────────────────────────┤
│ block2b_expand_activation     │ (None, 32, 32, 144)       │           0 │ block2b_expand_bn[0][0]        │
│ (Activation)                  │                           │             │                                │
├───────────────────────────────┼───────────────────────────┼─────────────┼────────────────────────────────┤
│ block2b_dwconv                │ (None, 32, 32, 144)       │       1,296 │ block2b_expand_activation[0][… │
│ (DepthwiseConv2D)             │                           │             │                                │
├───────────────────────────────┼───────────────────────────┼─────────────┼────────────────────────────────┤
│ block2b_bn                    │ (None, 32, 32, 144)       │         576 │ block2b_dwconv[0][0]           │
│ (BatchNormalization)          │                           │             │                                │
├───────────────────────────────┼───────────────────────────┼─────────────┼────────────────────────────────┤
│ block2b_activation            │ (None, 32, 32, 144)       │           0 │ block2b_bn[0][0]               │
│ (Activation)                  │                           │             │                                │
├───────────────────────────────┼───────────────────────────┼─────────────┼────────────────────────────────┤
│ block2b_se_squeeze            │ (None, 144)               │           0 │ block2b_activation[0][0]       │
│ (GlobalAveragePooling2D)      │                           │             │                                │
├───────────────────────────────┼───────────────────────────┼─────────────┼────────────────────────────────┤
│ block2b_se_reshape (Reshape)  │ (None, 1, 1, 144)         │           0 │ block2b_se_squeeze[0][0]       │
├───────────────────────────────┼───────────────────────────┼─────────────┼────────────────────────────────┤
│ block2b_se_reduce (Conv2D)    │ (None, 1, 1, 6)           │         870 │ block2b_se_reshape[0][0]       │
├───────────────────────────────┼───────────────────────────┼─────────────┼────────────────────────────────┤
│ block2b_se_expand (Conv2D)    │ (None, 1, 1, 144)         │       1,008 │ block2b_se_reduce[0][0]        │
├───────────────────────────────┼───────────────────────────┼─────────────┼────────────────────────────────┤
│ block2b_se_excite (Multiply)  │ (None, 32, 32, 144)       │           0 │ block2b_activation[0][0],      │
│                               │                           │             │ block2b_se_expand[0][0]        │
├───────────────────────────────┼───────────────────────────┼─────────────┼────────────────────────────────┤
│ block2b_project_conv (Conv2D) │ (None, 32, 32, 24)        │       3,456 │ block2b_se_excite[0][0]        │
├───────────────────────────────┼───────────────────────────┼─────────────┼────────────────────────────────┤
│ block2b_project_bn            │ (None, 32, 32, 24)        │          96 │ block2b_project_conv[0][0]     │
│ (BatchNormalization)          │                           │             │                                │
├───────────────────────────────┼───────────────────────────┼─────────────┼────────────────────────────────┤
│ block2b_drop (Dropout)        │ (None, 32, 32, 24)        │           0 │ block2b_project_bn[0][0]       │
├───────────────────────────────┼───────────────────────────┼─────────────┼────────────────────────────────┤
│ block2b_add (Add)             │ (None, 32, 32, 24)        │           0 │ block2b_drop[0][0],            │
│                               │                           │             │ block2a_project_bn[0][0]       │
├───────────────────────────────┼───────────────────────────┼─────────────┼────────────────────────────────┤
│ block3a_expand_conv (Conv2D)  │ (None, 32, 32, 144)       │       3,456 │ block2b_add[0][0]              │
├───────────────────────────────┼───────────────────────────┼─────────────┼────────────────────────────────┤
│ block3a_expand_bn             │ (None, 32, 32, 144)       │         576 │ block3a_expand_conv[0][0]      │
│ (BatchNormalization)          │                           │             │                                │
├───────────────────────────────┼───────────────────────────┼─────────────┼────────────────────────────────┤
│ block3a_expand_activation     │ (None, 32, 32, 144)       │           0 │ block3a_expand_bn[0][0]        │
│ (Activation)                  │                           │             │                                │
├───────────────────────────────┼───────────────────────────┼─────────────┼────────────────────────────────┤
│ block3a_dwconv_pad            │ (None, 35, 35, 144)       │           0 │ block3a_expand_activation[0][… │
│ (ZeroPadding2D)               │                           │             │                                │
├───────────────────────────────┼───────────────────────────┼─────────────┼────────────────────────────────┤
│ block3a_dwconv                │ (None, 16, 16, 144)       │       3,600 │ block3a_dwconv_pad[0][0]       │
│ (DepthwiseConv2D)             │                           │             │                                │
├───────────────────────────────┼───────────────────────────┼─────────────┼────────────────────────────────┤
│ block3a_bn                    │ (None, 16, 16, 144)       │         576 │ block3a_dwconv[0][0]           │
│ (BatchNormalization)          │                           │             │                                │
├───────────────────────────────┼───────────────────────────┼─────────────┼────────────────────────────────┤
│ block3a_activation            │ (None, 16, 16, 144)       │           0 │ block3a_bn[0][0]               │
│ (Activation)                  │                           │             │                                │
├───────────────────────────────┼───────────────────────────┼─────────────┼────────────────────────────────┤
│ block3a_se_squeeze            │ (None, 144)               │           0 │ block3a_activation[0][0]       │
│ (GlobalAveragePooling2D)      │                           │             │                                │
├───────────────────────────────┼───────────────────────────┼─────────────┼────────────────────────────────┤
│ block3a_se_reshape (Reshape)  │ (None, 1, 1, 144)         │           0 │ block3a_se_squeeze[0][0]       │
├───────────────────────────────┼───────────────────────────┼─────────────┼────────────────────────────────┤
│ block3a_se_reduce (Conv2D)    │ (None, 1, 1, 6)           │         870 │ block3a_se_reshape[0][0]       │
├───────────────────────────────┼───────────────────────────┼─────────────┼────────────────────────────────┤
│ block3a_se_expand (Conv2D)    │ (None, 1, 1, 144)         │       1,008 │ block3a_se_reduce[0][0]        │
├───────────────────────────────┼───────────────────────────┼─────────────┼────────────────────────────────┤
│ block3a_se_excite (Multiply)  │ (None, 16, 16, 144)       │           0 │ block3a_activation[0][0],      │
│                               │                           │             │ block3a_se_expand[0][0]        │
├───────────────────────────────┼───────────────────────────┼─────────────┼────────────────────────────────┤
│ block3a_project_conv (Conv2D) │ (None, 16, 16, 40)        │       5,760 │ block3a_se_excite[0][0]        │
├───────────────────────────────┼───────────────────────────┼─────────────┼────────────────────────────────┤
│ block3a_project_bn            │ (None, 16, 16, 40)        │         160 │ block3a_project_conv[0][0]     │
│ (BatchNormalization)          │                           │             │                                │
├───────────────────────────────┼───────────────────────────┼─────────────┼────────────────────────────────┤
│ block3b_expand_conv (Conv2D)  │ (None, 16, 16, 240)       │       9,600 │ block3a_project_bn[0][0]       │
├───────────────────────────────┼───────────────────────────┼─────────────┼────────────────────────────────┤
│ block3b_expand_bn             │ (None, 16, 16, 240)       │         960 │ block3b_expand_conv[0][0]      │
│ (BatchNormalization)          │                           │             │                                │
├───────────────────────────────┼───────────────────────────┼─────────────┼────────────────────────────────┤
│ block3b_expand_activation     │ (None, 16, 16, 240)       │           0 │ block3b_expand_bn[0][0]        │
│ (Activation)                  │                           │             │                                │
├───────────────────────────────┼───────────────────────────┼─────────────┼────────────────────────────────┤
│ block3b_dwconv                │ (None, 16, 16, 240)       │       6,000 │ block3b_expand_activation[0][… │
│ (DepthwiseConv2D)             │                           │             │                                │
├───────────────────────────────┼───────────────────────────┼─────────────┼────────────────────────────────┤
│ block3b_bn                    │ (None, 16, 16, 240)       │         960 │ block3b_dwconv[0][0]           │
│ (BatchNormalization)          │                           │             │                                │
├───────────────────────────────┼───────────────────────────┼─────────────┼────────────────────────────────┤
│ block3b_activation            │ (None, 16, 16, 240)       │           0 │ block3b_bn[0][0]               │
│ (Activation)                  │                           │             │                                │
├───────────────────────────────┼───────────────────────────┼─────────────┼────────────────────────────────┤
│ block3b_se_squeeze            │ (None, 240)               │           0 │ block3b_activation[0][0]       │
│ (GlobalAveragePooling2D)      │                           │             │                                │
├───────────────────────────────┼───────────────────────────┼─────────────┼────────────────────────────────┤
│ block3b_se_reshape (Reshape)  │ (None, 1, 1, 240)         │           0 │ block3b_se_squeeze[0][0]       │
├───────────────────────────────┼───────────────────────────┼─────────────┼────────────────────────────────┤
│ block3b_se_reduce (Conv2D)    │ (None, 1, 1, 10)          │       2,410 │ block3b_se_reshape[0][0]       │
├───────────────────────────────┼───────────────────────────┼─────────────┼────────────────────────────────┤
│ block3b_se_expand (Conv2D)    │ (None, 1, 1, 240)         │       2,640 │ block3b_se_reduce[0][0]        │
├───────────────────────────────┼───────────────────────────┼─────────────┼────────────────────────────────┤
│ block3b_se_excite (Multiply)  │ (None, 16, 16, 240)       │           0 │ block3b_activation[0][0],      │
│                               │                           │             │ block3b_se_expand[0][0]        │
├───────────────────────────────┼───────────────────────────┼─────────────┼────────────────────────────────┤
│ block3b_project_conv (Conv2D) │ (None, 16, 16, 40)        │       9,600 │ block3b_se_excite[0][0]        │
├───────────────────────────────┼───────────────────────────┼─────────────┼────────────────────────────────┤
│ block3b_project_bn            │ (None, 16, 16, 40)        │         160 │ block3b_project_conv[0][0]     │
│ (BatchNormalization)          │                           │             │                                │
├───────────────────────────────┼───────────────────────────┼─────────────┼────────────────────────────────┤
│ block3b_drop (Dropout)        │ (None, 16, 16, 40)        │           0 │ block3b_project_bn[0][0]       │
├───────────────────────────────┼───────────────────────────┼─────────────┼────────────────────────────────┤
│ block3b_add (Add)             │ (None, 16, 16, 40)        │           0 │ block3b_drop[0][0],            │
│                               │                           │             │ block3a_project_bn[0][0]       │
├───────────────────────────────┼───────────────────────────┼─────────────┼────────────────────────────────┤
│ block4a_expand_conv (Conv2D)  │ (None, 16, 16, 240)       │       9,600 │ block3b_add[0][0]              │
├───────────────────────────────┼───────────────────────────┼─────────────┼────────────────────────────────┤
│ block4a_expand_bn             │ (None, 16, 16, 240)       │         960 │ block4a_expand_conv[0][0]      │
│ (BatchNormalization)          │                           │             │                                │
├───────────────────────────────┼───────────────────────────┼─────────────┼────────────────────────────────┤
│ block4a_expand_activation     │ (None, 16, 16, 240)       │           0 │ block4a_expand_bn[0][0]        │
│ (Activation)                  │                           │             │                                │
├───────────────────────────────┼───────────────────────────┼─────────────┼────────────────────────────────┤
│ block4a_dwconv_pad            │ (None, 17, 17, 240)       │           0 │ block4a_expand_activation[0][… │
│ (ZeroPadding2D)               │                           │             │                                │
├───────────────────────────────┼───────────────────────────┼─────────────┼────────────────────────────────┤
│ block4a_dwconv                │ (None, 8, 8, 240)         │       2,160 │ block4a_dwconv_pad[0][0]       │
│ (DepthwiseConv2D)             │                           │             │                                │
├───────────────────────────────┼───────────────────────────┼─────────────┼────────────────────────────────┤
│ block4a_bn                    │ (None, 8, 8, 240)         │         960 │ block4a_dwconv[0][0]           │
│ (BatchNormalization)          │                           │             │                                │
├───────────────────────────────┼───────────────────────────┼─────────────┼────────────────────────────────┤
│ block4a_activation            │ (None, 8, 8, 240)         │           0 │ block4a_bn[0][0]               │
│ (Activation)                  │                           │             │                                │
├───────────────────────────────┼───────────────────────────┼─────────────┼────────────────────────────────┤
│ block4a_se_squeeze            │ (None, 240)               │           0 │ block4a_activation[0][0]       │
│ (GlobalAveragePooling2D)      │                           │             │                                │
├───────────────────────────────┼───────────────────────────┼─────────────┼────────────────────────────────┤
│ block4a_se_reshape (Reshape)  │ (None, 1, 1, 240)         │           0 │ block4a_se_squeeze[0][0]       │
├───────────────────────────────┼───────────────────────────┼─────────────┼────────────────────────────────┤
│ block4a_se_reduce (Conv2D)    │ (None, 1, 1, 10)          │       2,410 │ block4a_se_reshape[0][0]       │
├───────────────────────────────┼───────────────────────────┼─────────────┼────────────────────────────────┤
│ block4a_se_expand (Conv2D)    │ (None, 1, 1, 240)         │       2,640 │ block4a_se_reduce[0][0]        │
├───────────────────────────────┼───────────────────────────┼─────────────┼────────────────────────────────┤
│ block4a_se_excite (Multiply)  │ (None, 8, 8, 240)         │           0 │ block4a_activation[0][0],      │
│                               │                           │             │ block4a_se_expand[0][0]        │
├───────────────────────────────┼───────────────────────────┼─────────────┼────────────────────────────────┤
│ block4a_project_conv (Conv2D) │ (None, 8, 8, 80)          │      19,200 │ block4a_se_excite[0][0]        │
├───────────────────────────────┼───────────────────────────┼─────────────┼────────────────────────────────┤
│ block4a_project_bn            │ (None, 8, 8, 80)          │         320 │ block4a_project_conv[0][0]     │
│ (BatchNormalization)          │                           │             │                                │
├───────────────────────────────┼───────────────────────────┼─────────────┼────────────────────────────────┤
│ block4b_expand_conv (Conv2D)  │ (None, 8, 8, 480)         │      38,400 │ block4a_project_bn[0][0]       │
├───────────────────────────────┼───────────────────────────┼─────────────┼────────────────────────────────┤
│ block4b_expand_bn             │ (None, 8, 8, 480)         │       1,920 │ block4b_expand_conv[0][0]      │
│ (BatchNormalization)          │                           │             │                                │
├───────────────────────────────┼───────────────────────────┼─────────────┼────────────────────────────────┤
│ block4b_expand_activation     │ (None, 8, 8, 480)         │           0 │ block4b_expand_bn[0][0]        │
│ (Activation)                  │                           │             │                                │
├───────────────────────────────┼───────────────────────────┼─────────────┼────────────────────────────────┤
│ block4b_dwconv                │ (None, 8, 8, 480)         │       4,320 │ block4b_expand_activation[0][… │
│ (DepthwiseConv2D)             │                           │             │                                │
├───────────────────────────────┼───────────────────────────┼─────────────┼────────────────────────────────┤
│ block4b_bn                    │ (None, 8, 8, 480)         │       1,920 │ block4b_dwconv[0][0]           │
│ (BatchNormalization)          │                           │             │                                │
├───────────────────────────────┼───────────────────────────┼─────────────┼────────────────────────────────┤
│ block4b_activation            │ (None, 8, 8, 480)         │           0 │ block4b_bn[0][0]               │
│ (Activation)                  │                           │             │                                │
├───────────────────────────────┼───────────────────────────┼─────────────┼────────────────────────────────┤
│ block4b_se_squeeze            │ (None, 480)               │           0 │ block4b_activation[0][0]       │
│ (GlobalAveragePooling2D)      │                           │             │                                │
├───────────────────────────────┼───────────────────────────┼─────────────┼────────────────────────────────┤
│ block4b_se_reshape (Reshape)  │ (None, 1, 1, 480)         │           0 │ block4b_se_squeeze[0][0]       │
├───────────────────────────────┼───────────────────────────┼─────────────┼────────────────────────────────┤
│ block4b_se_reduce (Conv2D)    │ (None, 1, 1, 20)          │       9,620 │ block4b_se_reshape[0][0]       │
├───────────────────────────────┼───────────────────────────┼─────────────┼────────────────────────────────┤
│ block4b_se_expand (Conv2D)    │ (None, 1, 1, 480)         │      10,080 │ block4b_se_reduce[0][0]        │
├───────────────────────────────┼───────────────────────────┼─────────────┼────────────────────────────────┤
│ block4b_se_excite (Multiply)  │ (None, 8, 8, 480)         │           0 │ block4b_activation[0][0],      │
│                               │                           │             │ block4b_se_expand[0][0]        │
├───────────────────────────────┼───────────────────────────┼─────────────┼────────────────────────────────┤
│ block4b_project_conv (Conv2D) │ (None, 8, 8, 80)          │      38,400 │ block4b_se_excite[0][0]        │
├───────────────────────────────┼───────────────────────────┼─────────────┼────────────────────────────────┤
│ block4b_project_bn            │ (None, 8, 8, 80)          │         320 │ block4b_project_conv[0][0]     │
│ (BatchNormalization)          │                           │             │                                │
├───────────────────────────────┼───────────────────────────┼─────────────┼────────────────────────────────┤
│ block4b_drop (Dropout)        │ (None, 8, 8, 80)          │           0 │ block4b_project_bn[0][0]       │
├───────────────────────────────┼───────────────────────────┼─────────────┼────────────────────────────────┤
│ block4b_add (Add)             │ (None, 8, 8, 80)          │           0 │ block4b_drop[0][0],            │
│                               │                           │             │ block4a_project_bn[0][0]       │
├───────────────────────────────┼───────────────────────────┼─────────────┼────────────────────────────────┤
│ block4c_expand_conv (Conv2D)  │ (None, 8, 8, 480)         │      38,400 │ block4b_add[0][0]              │
├───────────────────────────────┼───────────────────────────┼─────────────┼────────────────────────────────┤
│ block4c_expand_bn             │ (None, 8, 8, 480)         │       1,920 │ block4c_expand_conv[0][0]      │
│ (BatchNormalization)          │                           │             │                                │
├───────────────────────────────┼───────────────────────────┼─────────────┼────────────────────────────────┤
│ block4c_expand_activation     │ (None, 8, 8, 480)         │           0 │ block4c_expand_bn[0][0]        │
│ (Activation)                  │                           │             │                                │
├───────────────────────────────┼───────────────────────────┼─────────────┼────────────────────────────────┤
│ block4c_dwconv                │ (None, 8, 8, 480)         │       4,320 │ block4c_expand_activation[0][… │
│ (DepthwiseConv2D)             │                           │             │                                │
├───────────────────────────────┼───────────────────────────┼─────────────┼────────────────────────────────┤
│ block4c_bn                    │ (None, 8, 8, 480)         │       1,920 │ block4c_dwconv[0][0]           │
│ (BatchNormalization)          │                           │             │                                │
├───────────────────────────────┼───────────────────────────┼─────────────┼────────────────────────────────┤
│ block4c_activation            │ (None, 8, 8, 480)         │           0 │ block4c_bn[0][0]               │
│ (Activation)                  │                           │             │                                │
├───────────────────────────────┼───────────────────────────┼─────────────┼────────────────────────────────┤
│ block4c_se_squeeze            │ (None, 480)               │           0 │ block4c_activation[0][0]       │
│ (GlobalAveragePooling2D)      │                           │             │                                │
├───────────────────────────────┼───────────────────────────┼─────────────┼────────────────────────────────┤
│ block4c_se_reshape (Reshape)  │ (None, 1, 1, 480)         │           0 │ block4c_se_squeeze[0][0]       │
├───────────────────────────────┼───────────────────────────┼─────────────┼────────────────────────────────┤
│ block4c_se_reduce (Conv2D)    │ (None, 1, 1, 20)          │       9,620 │ block4c_se_reshape[0][0]       │
├───────────────────────────────┼───────────────────────────┼─────────────┼────────────────────────────────┤
│ block4c_se_expand (Conv2D)    │ (None, 1, 1, 480)         │      10,080 │ block4c_se_reduce[0][0]        │
├───────────────────────────────┼───────────────────────────┼─────────────┼────────────────────────────────┤
│ block4c_se_excite (Multiply)  │ (None, 8, 8, 480)         │           0 │ block4c_activation[0][0],      │
│                               │                           │             │ block4c_se_expand[0][0]        │
├───────────────────────────────┼───────────────────────────┼─────────────┼────────────────────────────────┤
│ block4c_project_conv (Conv2D) │ (None, 8, 8, 80)          │      38,400 │ block4c_se_excite[0][0]        │
├───────────────────────────────┼───────────────────────────┼─────────────┼────────────────────────────────┤
│ block4c_project_bn            │ (None, 8, 8, 80)          │         320 │ block4c_project_conv[0][0]     │
│ (BatchNormalization)          │                           │             │                                │
├───────────────────────────────┼───────────────────────────┼─────────────┼────────────────────────────────┤
│ block4c_drop (Dropout)        │ (None, 8, 8, 80)          │           0 │ block4c_project_bn[0][0]       │
├───────────────────────────────┼───────────────────────────┼─────────────┼────────────────────────────────┤
│ block4c_add (Add)             │ (None, 8, 8, 80)          │           0 │ block4c_drop[0][0],            │
│                               │                           │             │ block4b_add[0][0]              │
├───────────────────────────────┼───────────────────────────┼─────────────┼────────────────────────────────┤
│ block5a_expand_conv (Conv2D)  │ (None, 8, 8, 480)         │      38,400 │ block4c_add[0][0]              │
├───────────────────────────────┼───────────────────────────┼─────────────┼────────────────────────────────┤
│ block5a_expand_bn             │ (None, 8, 8, 480)         │       1,920 │ block5a_expand_conv[0][0]      │
│ (BatchNormalization)          │                           │             │                                │
├───────────────────────────────┼───────────────────────────┼─────────────┼────────────────────────────────┤
│ block5a_expand_activation     │ (None, 8, 8, 480)         │           0 │ block5a_expand_bn[0][0]        │
│ (Activation)                  │                           │             │                                │
├───────────────────────────────┼───────────────────────────┼─────────────┼────────────────────────────────┤
│ block5a_dwconv                │ (None, 8, 8, 480)         │      12,000 │ block5a_expand_activation[0][… │
│ (DepthwiseConv2D)             │                           │             │                                │
├───────────────────────────────┼───────────────────────────┼─────────────┼────────────────────────────────┤
│ block5a_bn                    │ (None, 8, 8, 480)         │       1,920 │ block5a_dwconv[0][0]           │
│ (BatchNormalization)          │                           │             │                                │
├───────────────────────────────┼───────────────────────────┼─────────────┼────────────────────────────────┤
│ block5a_activation            │ (None, 8, 8, 480)         │           0 │ block5a_bn[0][0]               │
│ (Activation)                  │                           │             │                                │
├───────────────────────────────┼───────────────────────────┼─────────────┼────────────────────────────────┤
│ block5a_se_squeeze            │ (None, 480)               │           0 │ block5a_activation[0][0]       │
│ (GlobalAveragePooling2D)      │                           │             │                                │
├───────────────────────────────┼───────────────────────────┼─────────────┼────────────────────────────────┤
│ block5a_se_reshape (Reshape)  │ (None, 1, 1, 480)         │           0 │ block5a_se_squeeze[0][0]       │
├───────────────────────────────┼───────────────────────────┼─────────────┼────────────────────────────────┤
│ block5a_se_reduce (Conv2D)    │ (None, 1, 1, 20)          │       9,620 │ block5a_se_reshape[0][0]       │
├───────────────────────────────┼───────────────────────────┼─────────────┼────────────────────────────────┤
│ block5a_se_expand (Conv2D)    │ (None, 1, 1, 480)         │      10,080 │ block5a_se_reduce[0][0]        │
├───────────────────────────────┼───────────────────────────┼─────────────┼────────────────────────────────┤
│ block5a_se_excite (Multiply)  │ (None, 8, 8, 480)         │           0 │ block5a_activation[0][0],      │
│                               │                           │             │ block5a_se_expand[0][0]        │
├───────────────────────────────┼───────────────────────────┼─────────────┼────────────────────────────────┤
│ block5a_project_conv (Conv2D) │ (None, 8, 8, 112)         │      53,760 │ block5a_se_excite[0][0]        │
├───────────────────────────────┼───────────────────────────┼─────────────┼────────────────────────────────┤
│ block5a_project_bn            │ (None, 8, 8, 112)         │         448 │ block5a_project_conv[0][0]     │
│ (BatchNormalization)          │                           │             │                                │
├───────────────────────────────┼───────────────────────────┼─────────────┼────────────────────────────────┤
│ block5b_expand_conv (Conv2D)  │ (None, 8, 8, 672)         │      75,264 │ block5a_project_bn[0][0]       │
├───────────────────────────────┼───────────────────────────┼─────────────┼────────────────────────────────┤
│ block5b_expand_bn             │ (None, 8, 8, 672)         │       2,688 │ block5b_expand_conv[0][0]      │
│ (BatchNormalization)          │                           │             │                                │
├───────────────────────────────┼───────────────────────────┼─────────────┼────────────────────────────────┤
│ block5b_expand_activation     │ (None, 8, 8, 672)         │           0 │ block5b_expand_bn[0][0]        │
│ (Activation)                  │                           │             │                                │
├───────────────────────────────┼───────────────────────────┼─────────────┼────────────────────────────────┤
│ block5b_dwconv                │ (None, 8, 8, 672)         │      16,800 │ block5b_expand_activation[0][… │
│ (DepthwiseConv2D)             │                           │             │                                │
├───────────────────────────────┼───────────────────────────┼─────────────┼────────────────────────────────┤
│ block5b_bn                    │ (None, 8, 8, 672)         │       2,688 │ block5b_dwconv[0][0]           │
│ (BatchNormalization)          │                           │             │                                │
├───────────────────────────────┼───────────────────────────┼─────────────┼────────────────────────────────┤
│ block5b_activation            │ (None, 8, 8, 672)         │           0 │ block5b_bn[0][0]               │
│ (Activation)                  │                           │             │                                │
├───────────────────────────────┼───────────────────────────┼─────────────┼────────────────────────────────┤
│ block5b_se_squeeze            │ (None, 672)               │           0 │ block5b_activation[0][0]       │
│ (GlobalAveragePooling2D)      │                           │             │                                │
├───────────────────────────────┼───────────────────────────┼─────────────┼────────────────────────────────┤
│ block5b_se_reshape (Reshape)  │ (None, 1, 1, 672)         │           0 │ block5b_se_squeeze[0][0]       │
├───────────────────────────────┼───────────────────────────┼─────────────┼────────────────────────────────┤
│ block5b_se_reduce (Conv2D)    │ (None, 1, 1, 28)          │      18,844 │ block5b_se_reshape[0][0]       │
├───────────────────────────────┼───────────────────────────┼─────────────┼────────────────────────────────┤
│ block5b_se_expand (Conv2D)    │ (None, 1, 1, 672)         │      19,488 │ block5b_se_reduce[0][0]        │
├───────────────────────────────┼───────────────────────────┼─────────────┼────────────────────────────────┤
│ block5b_se_excite (Multiply)  │ (None, 8, 8, 672)         │           0 │ block5b_activation[0][0],      │
│                               │                           │             │ block5b_se_expand[0][0]        │
├───────────────────────────────┼───────────────────────────┼─────────────┼────────────────────────────────┤
│ block5b_project_conv (Conv2D) │ (None, 8, 8, 112)         │      75,264 │ block5b_se_excite[0][0]        │
├───────────────────────────────┼───────────────────────────┼─────────────┼────────────────────────────────┤
│ block5b_project_bn            │ (None, 8, 8, 112)         │         448 │ block5b_project_conv[0][0]     │
│ (BatchNormalization)          │                           │             │                                │
├───────────────────────────────┼───────────────────────────┼─────────────┼────────────────────────────────┤
│ block5b_drop (Dropout)        │ (None, 8, 8, 112)         │           0 │ block5b_project_bn[0][0]       │
├───────────────────────────────┼───────────────────────────┼─────────────┼────────────────────────────────┤
│ block5b_add (Add)             │ (None, 8, 8, 112)         │           0 │ block5b_drop[0][0],            │
│                               │                           │             │ block5a_project_bn[0][0]       │
├───────────────────────────────┼───────────────────────────┼─────────────┼────────────────────────────────┤
│ block5c_expand_conv (Conv2D)  │ (None, 8, 8, 672)         │      75,264 │ block5b_add[0][0]              │
├───────────────────────────────┼───────────────────────────┼─────────────┼────────────────────────────────┤
│ block5c_expand_bn             │ (None, 8, 8, 672)         │       2,688 │ block5c_expand_conv[0][0]      │
│ (BatchNormalization)          │                           │             │                                │
├───────────────────────────────┼───────────────────────────┼─────────────┼────────────────────────────────┤
│ block5c_expand_activation     │ (None, 8, 8, 672)         │           0 │ block5c_expand_bn[0][0]        │
│ (Activation)                  │                           │             │                                │
├───────────────────────────────┼───────────────────────────┼─────────────┼────────────────────────────────┤
│ block5c_dwconv                │ (None, 8, 8, 672)         │      16,800 │ block5c_expand_activation[0][… │
│ (DepthwiseConv2D)             │                           │             │                                │
├───────────────────────────────┼───────────────────────────┼─────────────┼────────────────────────────────┤
│ block5c_bn                    │ (None, 8, 8, 672)         │       2,688 │ block5c_dwconv[0][0]           │
│ (BatchNormalization)          │                           │             │                                │
├───────────────────────────────┼───────────────────────────┼─────────────┼────────────────────────────────┤
│ block5c_activation            │ (None, 8, 8, 672)         │           0 │ block5c_bn[0][0]               │
│ (Activation)                  │                           │             │                                │
├───────────────────────────────┼───────────────────────────┼─────────────┼────────────────────────────────┤
│ block5c_se_squeeze            │ (None, 672)               │           0 │ block5c_activation[0][0]       │
│ (GlobalAveragePooling2D)      │                           │             │                                │
├───────────────────────────────┼───────────────────────────┼─────────────┼────────────────────────────────┤
│ block5c_se_reshape (Reshape)  │ (None, 1, 1, 672)         │           0 │ block5c_se_squeeze[0][0]       │
├───────────────────────────────┼───────────────────────────┼─────────────┼────────────────────────────────┤
│ block5c_se_reduce (Conv2D)    │ (None, 1, 1, 28)          │      18,844 │ block5c_se_reshape[0][0]       │
├───────────────────────────────┼───────────────────────────┼─────────────┼────────────────────────────────┤
│ block5c_se_expand (Conv2D)    │ (None, 1, 1, 672)         │      19,488 │ block5c_se_reduce[0][0]        │
├───────────────────────────────┼───────────────────────────┼─────────────┼────────────────────────────────┤
│ block5c_se_excite (Multiply)  │ (None, 8, 8, 672)         │           0 │ block5c_activation[0][0],      │
│                               │                           │             │ block5c_se_expand[0][0]        │
├───────────────────────────────┼───────────────────────────┼─────────────┼────────────────────────────────┤
│ block5c_project_conv (Conv2D) │ (None, 8, 8, 112)         │      75,264 │ block5c_se_excite[0][0]        │
├───────────────────────────────┼───────────────────────────┼─────────────┼────────────────────────────────┤
│ block5c_project_bn            │ (None, 8, 8, 112)         │         448 │ block5c_project_conv[0][0]     │
│ (BatchNormalization)          │                           │             │                                │
├───────────────────────────────┼───────────────────────────┼─────────────┼────────────────────────────────┤
│ block5c_drop (Dropout)        │ (None, 8, 8, 112)         │           0 │ block5c_project_bn[0][0]       │
├───────────────────────────────┼───────────────────────────┼─────────────┼────────────────────────────────┤
│ block5c_add (Add)             │ (None, 8, 8, 112)         │           0 │ block5c_drop[0][0],            │
│                               │                           │             │ block5b_add[0][0]              │
├───────────────────────────────┼───────────────────────────┼─────────────┼────────────────────────────────┤
│ block6a_expand_conv (Conv2D)  │ (None, 8, 8, 672)         │      75,264 │ block5c_add[0][0]              │
├───────────────────────────────┼───────────────────────────┼─────────────┼────────────────────────────────┤
│ block6a_expand_bn             │ (None, 8, 8, 672)         │       2,688 │ block6a_expand_conv[0][0]      │
│ (BatchNormalization)          │                           │             │                                │
├───────────────────────────────┼───────────────────────────┼─────────────┼────────────────────────────────┤
│ block6a_expand_activation     │ (None, 8, 8, 672)         │           0 │ block6a_expand_bn[0][0]        │
│ (Activation)                  │                           │             │                                │
├───────────────────────────────┼───────────────────────────┼─────────────┼────────────────────────────────┤
│ block6a_dwconv_pad            │ (None, 11, 11, 672)       │           0 │ block6a_expand_activation[0][… │
│ (ZeroPadding2D)               │                           │             │                                │
├───────────────────────────────┼───────────────────────────┼─────────────┼────────────────────────────────┤
│ block6a_dwconv                │ (None, 4, 4, 672)         │      16,800 │ block6a_dwconv_pad[0][0]       │
│ (DepthwiseConv2D)             │                           │             │                                │
├───────────────────────────────┼───────────────────────────┼─────────────┼────────────────────────────────┤
│ block6a_bn                    │ (None, 4, 4, 672)         │       2,688 │ block6a_dwconv[0][0]           │
│ (BatchNormalization)          │                           │             │                                │
├───────────────────────────────┼───────────────────────────┼─────────────┼────────────────────────────────┤
│ block6a_activation            │ (None, 4, 4, 672)         │           0 │ block6a_bn[0][0]               │
│ (Activation)                  │                           │             │                                │
├───────────────────────────────┼───────────────────────────┼─────────────┼────────────────────────────────┤
│ block6a_se_squeeze            │ (None, 672)               │           0 │ block6a_activation[0][0]       │
│ (GlobalAveragePooling2D)      │                           │             │                                │
├───────────────────────────────┼───────────────────────────┼─────────────┼────────────────────────────────┤
│ block6a_se_reshape (Reshape)  │ (None, 1, 1, 672)         │           0 │ block6a_se_squeeze[0][0]       │
├───────────────────────────────┼───────────────────────────┼─────────────┼────────────────────────────────┤
│ block6a_se_reduce (Conv2D)    │ (None, 1, 1, 28)          │      18,844 │ block6a_se_reshape[0][0]       │
├───────────────────────────────┼───────────────────────────┼─────────────┼────────────────────────────────┤
│ block6a_se_expand (Conv2D)    │ (None, 1, 1, 672)         │      19,488 │ block6a_se_reduce[0][0]        │
├───────────────────────────────┼───────────────────────────┼─────────────┼────────────────────────────────┤
│ block6a_se_excite (Multiply)  │ (None, 4, 4, 672)         │           0 │ block6a_activation[0][0],      │
│                               │                           │             │ block6a_se_expand[0][0]        │
├───────────────────────────────┼───────────────────────────┼─────────────┼────────────────────────────────┤
│ block6a_project_conv (Conv2D) │ (None, 4, 4, 192)         │     129,024 │ block6a_se_excite[0][0]        │
├───────────────────────────────┼───────────────────────────┼─────────────┼────────────────────────────────┤
│ block6a_project_bn            │ (None, 4, 4, 192)         │         768 │ block6a_project_conv[0][0]     │
│ (BatchNormalization)          │                           │             │                                │
├───────────────────────────────┼───────────────────────────┼─────────────┼────────────────────────────────┤
│ block6b_expand_conv (Conv2D)  │ (None, 4, 4, 1152)        │     221,184 │ block6a_project_bn[0][0]       │
├───────────────────────────────┼───────────────────────────┼─────────────┼────────────────────────────────┤
│ block6b_expand_bn             │ (None, 4, 4, 1152)        │       4,608 │ block6b_expand_conv[0][0]      │
│ (BatchNormalization)          │                           │             │                                │
├───────────────────────────────┼───────────────────────────┼─────────────┼────────────────────────────────┤
│ block6b_expand_activation     │ (None, 4, 4, 1152)        │           0 │ block6b_expand_bn[0][0]        │
│ (Activation)                  │                           │             │                                │
├───────────────────────────────┼───────────────────────────┼─────────────┼────────────────────────────────┤
│ block6b_dwconv                │ (None, 4, 4, 1152)        │      28,800 │ block6b_expand_activation[0][… │
│ (DepthwiseConv2D)             │                           │             │                                │
├───────────────────────────────┼───────────────────────────┼─────────────┼────────────────────────────────┤
│ block6b_bn                    │ (None, 4, 4, 1152)        │       4,608 │ block6b_dwconv[0][0]           │
│ (BatchNormalization)          │                           │             │                                │
├───────────────────────────────┼───────────────────────────┼─────────────┼────────────────────────────────┤
│ block6b_activation            │ (None, 4, 4, 1152)        │           0 │ block6b_bn[0][0]               │
│ (Activation)                  │                           │             │                                │
├───────────────────────────────┼───────────────────────────┼─────────────┼────────────────────────────────┤
│ block6b_se_squeeze            │ (None, 1152)              │           0 │ block6b_activation[0][0]       │
│ (GlobalAveragePooling2D)      │                           │             │                                │
├───────────────────────────────┼───────────────────────────┼─────────────┼────────────────────────────────┤
│ block6b_se_reshape (Reshape)  │ (None, 1, 1, 1152)        │           0 │ block6b_se_squeeze[0][0]       │
├───────────────────────────────┼───────────────────────────┼─────────────┼────────────────────────────────┤
│ block6b_se_reduce (Conv2D)    │ (None, 1, 1, 48)          │      55,344 │ block6b_se_reshape[0][0]       │
├───────────────────────────────┼───────────────────────────┼─────────────┼────────────────────────────────┤
│ block6b_se_expand (Conv2D)    │ (None, 1, 1, 1152)        │      56,448 │ block6b_se_reduce[0][0]        │
├───────────────────────────────┼───────────────────────────┼─────────────┼────────────────────────────────┤
│ block6b_se_excite (Multiply)  │ (None, 4, 4, 1152)        │           0 │ block6b_activation[0][0],      │
│                               │                           │             │ block6b_se_expand[0][0]        │
├───────────────────────────────┼───────────────────────────┼─────────────┼────────────────────────────────┤
│ block6b_project_conv (Conv2D) │ (None, 4, 4, 192)         │     221,184 │ block6b_se_excite[0][0]        │
├───────────────────────────────┼───────────────────────────┼─────────────┼────────────────────────────────┤
│ block6b_project_bn            │ (None, 4, 4, 192)         │         768 │ block6b_project_conv[0][0]     │
│ (BatchNormalization)          │                           │             │                                │
├───────────────────────────────┼───────────────────────────┼─────────────┼────────────────────────────────┤
│ block6b_drop (Dropout)        │ (None, 4, 4, 192)         │           0 │ block6b_project_bn[0][0]       │
├───────────────────────────────┼───────────────────────────┼─────────────┼────────────────────────────────┤
│ block6b_add (Add)             │ (None, 4, 4, 192)         │           0 │ block6b_drop[0][0],            │
│                               │                           │             │ block6a_project_bn[0][0]       │
├───────────────────────────────┼───────────────────────────┼─────────────┼────────────────────────────────┤
│ block6c_expand_conv (Conv2D)  │ (None, 4, 4, 1152)        │     221,184 │ block6b_add[0][0]              │
├───────────────────────────────┼───────────────────────────┼─────────────┼────────────────────────────────┤
│ block6c_expand_bn             │ (None, 4, 4, 1152)        │       4,608 │ block6c_expand_conv[0][0]      │
│ (BatchNormalization)          │                           │             │                                │
├───────────────────────────────┼───────────────────────────┼─────────────┼────────────────────────────────┤
│ block6c_expand_activation     │ (None, 4, 4, 1152)        │           0 │ block6c_expand_bn[0][0]        │
│ (Activation)                  │                           │             │                                │
├───────────────────────────────┼───────────────────────────┼─────────────┼────────────────────────────────┤
│ block6c_dwconv                │ (None, 4, 4, 1152)        │      28,800 │ block6c_expand_activation[0][… │
│ (DepthwiseConv2D)             │                           │             │                                │
├───────────────────────────────┼───────────────────────────┼─────────────┼────────────────────────────────┤
│ block6c_bn                    │ (None, 4, 4, 1152)        │       4,608 │ block6c_dwconv[0][0]           │
│ (BatchNormalization)          │                           │             │                                │
├───────────────────────────────┼───────────────────────────┼─────────────┼────────────────────────────────┤
│ block6c_activation            │ (None, 4, 4, 1152)        │           0 │ block6c_bn[0][0]               │
│ (Activation)                  │                           │             │                                │
├───────────────────────────────┼───────────────────────────┼─────────────┼────────────────────────────────┤
│ block6c_se_squeeze            │ (None, 1152)              │           0 │ block6c_activation[0][0]       │
│ (GlobalAveragePooling2D)      │                           │             │                                │
├───────────────────────────────┼───────────────────────────┼─────────────┼────────────────────────────────┤
│ block6c_se_reshape (Reshape)  │ (None, 1, 1, 1152)        │           0 │ block6c_se_squeeze[0][0]       │
├───────────────────────────────┼───────────────────────────┼─────────────┼────────────────────────────────┤
│ block6c_se_reduce (Conv2D)    │ (None, 1, 1, 48)          │      55,344 │ block6c_se_reshape[0][0]       │
├───────────────────────────────┼───────────────────────────┼─────────────┼────────────────────────────────┤
│ block6c_se_expand (Conv2D)    │ (None, 1, 1, 1152)        │      56,448 │ block6c_se_reduce[0][0]        │
├───────────────────────────────┼───────────────────────────┼─────────────┼────────────────────────────────┤
│ block6c_se_excite (Multiply)  │ (None, 4, 4, 1152)        │           0 │ block6c_activation[0][0],      │
│                               │                           │             │ block6c_se_expand[0][0]        │
├───────────────────────────────┼───────────────────────────┼─────────────┼────────────────────────────────┤
│ block6c_project_conv (Conv2D) │ (None, 4, 4, 192)         │     221,184 │ block6c_se_excite[0][0]        │
├───────────────────────────────┼───────────────────────────┼─────────────┼────────────────────────────────┤
│ block6c_project_bn            │ (None, 4, 4, 192)         │         768 │ block6c_project_conv[0][0]     │
│ (BatchNormalization)          │                           │             │                                │
├───────────────────────────────┼───────────────────────────┼─────────────┼────────────────────────────────┤
│ block6c_drop (Dropout)        │ (None, 4, 4, 192)         │           0 │ block6c_project_bn[0][0]       │
├───────────────────────────────┼───────────────────────────┼─────────────┼────────────────────────────────┤
│ block6c_add (Add)             │ (None, 4, 4, 192)         │           0 │ block6c_drop[0][0],            │
│                               │                           │             │ block6b_add[0][0]              │
├───────────────────────────────┼───────────────────────────┼─────────────┼────────────────────────────────┤
│ block6d_expand_conv (Conv2D)  │ (None, 4, 4, 1152)        │     221,184 │ block6c_add[0][0]              │
├───────────────────────────────┼───────────────────────────┼─────────────┼────────────────────────────────┤
│ block6d_expand_bn             │ (None, 4, 4, 1152)        │       4,608 │ block6d_expand_conv[0][0]      │
│ (BatchNormalization)          │                           │             │                                │
├───────────────────────────────┼───────────────────────────┼─────────────┼────────────────────────────────┤
│ block6d_expand_activation     │ (None, 4, 4, 1152)        │           0 │ block6d_expand_bn[0][0]        │
│ (Activation)                  │                           │             │                                │
├───────────────────────────────┼───────────────────────────┼─────────────┼────────────────────────────────┤
│ block6d_dwconv                │ (None, 4, 4, 1152)        │      28,800 │ block6d_expand_activation[0][… │
│ (DepthwiseConv2D)             │                           │             │                                │
├───────────────────────────────┼───────────────────────────┼─────────────┼────────────────────────────────┤
│ block6d_bn                    │ (None, 4, 4, 1152)        │       4,608 │ block6d_dwconv[0][0]           │
│ (BatchNormalization)          │                           │             │                                │
├───────────────────────────────┼───────────────────────────┼─────────────┼────────────────────────────────┤
│ block6d_activation            │ (None, 4, 4, 1152)        │           0 │ block6d_bn[0][0]               │
│ (Activation)                  │                           │             │                                │
├───────────────────────────────┼───────────────────────────┼─────────────┼────────────────────────────────┤
│ block6d_se_squeeze            │ (None, 1152)              │           0 │ block6d_activation[0][0]       │
│ (GlobalAveragePooling2D)      │                           │             │                                │
├───────────────────────────────┼───────────────────────────┼─────────────┼────────────────────────────────┤
│ block6d_se_reshape (Reshape)  │ (None, 1, 1, 1152)        │           0 │ block6d_se_squeeze[0][0]       │
├───────────────────────────────┼───────────────────────────┼─────────────┼────────────────────────────────┤
│ block6d_se_reduce (Conv2D)    │ (None, 1, 1, 48)          │      55,344 │ block6d_se_reshape[0][0]       │
├───────────────────────────────┼───────────────────────────┼─────────────┼────────────────────────────────┤
│ block6d_se_expand (Conv2D)    │ (None, 1, 1, 1152)        │      56,448 │ block6d_se_reduce[0][0]        │
├───────────────────────────────┼───────────────────────────┼─────────────┼────────────────────────────────┤
│ block6d_se_excite (Multiply)  │ (None, 4, 4, 1152)        │           0 │ block6d_activation[0][0],      │
│                               │                           │             │ block6d_se_expand[0][0]        │
├───────────────────────────────┼───────────────────────────┼─────────────┼────────────────────────────────┤
│ block6d_project_conv (Conv2D) │ (None, 4, 4, 192)         │     221,184 │ block6d_se_excite[0][0]        │
├───────────────────────────────┼───────────────────────────┼─────────────┼────────────────────────────────┤
│ block6d_project_bn            │ (None, 4, 4, 192)         │         768 │ block6d_project_conv[0][0]     │
│ (BatchNormalization)          │                           │             │                                │
├───────────────────────────────┼───────────────────────────┼─────────────┼────────────────────────────────┤
│ block6d_drop (Dropout)        │ (None, 4, 4, 192)         │           0 │ block6d_project_bn[0][0]       │
├───────────────────────────────┼───────────────────────────┼─────────────┼────────────────────────────────┤
│ block6d_add (Add)             │ (None, 4, 4, 192)         │           0 │ block6d_drop[0][0],            │
│                               │                           │             │ block6c_add[0][0]              │
├───────────────────────────────┼───────────────────────────┼─────────────┼────────────────────────────────┤
│ block7a_expand_conv (Conv2D)  │ (None, 4, 4, 1152)        │     221,184 │ block6d_add[0][0]              │
├───────────────────────────────┼───────────────────────────┼─────────────┼────────────────────────────────┤
│ block7a_expand_bn             │ (None, 4, 4, 1152)        │       4,608 │ block7a_expand_conv[0][0]      │
│ (BatchNormalization)          │                           │             │                                │
├───────────────────────────────┼───────────────────────────┼─────────────┼────────────────────────────────┤
│ block7a_expand_activation     │ (None, 4, 4, 1152)        │           0 │ block7a_expand_bn[0][0]        │
│ (Activation)                  │                           │             │                                │
├───────────────────────────────┼───────────────────────────┼─────────────┼────────────────────────────────┤
│ block7a_dwconv                │ (None, 4, 4, 1152)        │      10,368 │ block7a_expand_activation[0][… │
│ (DepthwiseConv2D)             │                           │             │                                │
├───────────────────────────────┼───────────────────────────┼─────────────┼────────────────────────────────┤
│ block7a_bn                    │ (None, 4, 4, 1152)        │       4,608 │ block7a_dwconv[0][0]           │
│ (BatchNormalization)          │                           │             │                                │
├───────────────────────────────┼───────────────────────────┼─────────────┼────────────────────────────────┤
│ block7a_activation            │ (None, 4, 4, 1152)        │           0 │ block7a_bn[0][0]               │
│ (Activation)                  │                           │             │                                │
├───────────────────────────────┼───────────────────────────┼─────────────┼────────────────────────────────┤
│ block7a_se_squeeze            │ (None, 1152)              │           0 │ block7a_activation[0][0]       │
│ (GlobalAveragePooling2D)      │                           │             │                                │
├───────────────────────────────┼───────────────────────────┼─────────────┼────────────────────────────────┤
│ block7a_se_reshape (Reshape)  │ (None, 1, 1, 1152)        │           0 │ block7a_se_squeeze[0][0]       │
├───────────────────────────────┼───────────────────────────┼─────────────┼────────────────────────────────┤
│ block7a_se_reduce (Conv2D)    │ (None, 1, 1, 48)          │      55,344 │ block7a_se_reshape[0][0]       │
├───────────────────────────────┼───────────────────────────┼─────────────┼────────────────────────────────┤
│ block7a_se_expand (Conv2D)    │ (None, 1, 1, 1152)        │      56,448 │ block7a_se_reduce[0][0]        │
├───────────────────────────────┼───────────────────────────┼─────────────┼────────────────────────────────┤
│ block7a_se_excite (Multiply)  │ (None, 4, 4, 1152)        │           0 │ block7a_activation[0][0],      │
│                               │                           │             │ block7a_se_expand[0][0]        │
├───────────────────────────────┼───────────────────────────┼─────────────┼────────────────────────────────┤
│ block7a_project_conv (Conv2D) │ (None, 4, 4, 320)         │     368,640 │ block7a_se_excite[0][0]        │
├───────────────────────────────┼───────────────────────────┼─────────────┼────────────────────────────────┤
│ block7a_project_bn            │ (None, 4, 4, 320)         │       1,280 │ block7a_project_conv[0][0]     │
│ (BatchNormalization)          │                           │             │                                │
├───────────────────────────────┼───────────────────────────┼─────────────┼────────────────────────────────┤
│ top_conv (Conv2D)             │ (None, 4, 4, 1280)        │     409,600 │ block7a_project_bn[0][0]       │
├───────────────────────────────┼───────────────────────────┼─────────────┼────────────────────────────────┤
│ top_bn (BatchNormalization)   │ (None, 4, 4, 1280)        │       5,120 │ top_conv[0][0]                 │
├───────────────────────────────┼───────────────────────────┼─────────────┼────────────────────────────────┤
│ trait_input (InputLayer)      │ (None, 3)                 │           0 │ -                              │
├───────────────────────────────┼───────────────────────────┼─────────────┼────────────────────────────────┤
│ top_activation (Activation)   │ (None, 4, 4, 1280)        │           0 │ top_bn[0][0]                   │
├───────────────────────────────┼───────────────────────────┼─────────────┼────────────────────────────────┤
│ dense (Dense)                 │ (None, 32)                │         128 │ trait_input[0][0]              │
├───────────────────────────────┼───────────────────────────┼─────────────┼────────────────────────────────┤
│ global_average_pooling2d      │ (None, 1280)              │           0 │ top_activation[0][0]           │
│ (GlobalAveragePooling2D)      │                           │             │                                │
├───────────────────────────────┼───────────────────────────┼─────────────┼────────────────────────────────┤
│ batch_normalization           │ (None, 32)                │         128 │ dense[0][0]                    │
│ (BatchNormalization)          │                           │             │                                │
├───────────────────────────────┼───────────────────────────┼─────────────┼────────────────────────────────┤
│ concatenate (Concatenate)     │ (None, 1312)              │           0 │ global_average_pooling2d[0][0… │
│                               │                           │             │ batch_normalization[0][0]      │
├───────────────────────────────┼───────────────────────────┼─────────────┼────────────────────────────────┤
│ dense_1 (Dense)               │ (None, 128)               │     168,064 │ concatenate[0][0]              │
├───────────────────────────────┼───────────────────────────┼─────────────┼────────────────────────────────┤
│ dense_2 (Dense)               │ (None, 64)                │       8,256 │ dense_1[0][0]                  │
├───────────────────────────────┼───────────────────────────┼─────────────┼────────────────────────────────┤
│ dense_3 (Dense)               │ (None, 64)                │       8,256 │ dense_1[0][0]                  │
├───────────────────────────────┼───────────────────────────┼─────────────┼────────────────────────────────┤
│ dense_4 (Dense)               │ (None, 64)                │       8,256 │ dense_1[0][0]                  │
├───────────────────────────────┼───────────────────────────┼─────────────┼────────────────────────────────┤
│ dense_5 (Dense)               │ (None, 64)                │       8,256 │ dense_1[0][0]                  │
├───────────────────────────────┼───────────────────────────┼─────────────┼────────────────────────────────┤
│ trait_1 (Dense)               │ (None, 3)                 │         195 │ dense_2[0][0]                  │
├───────────────────────────────┼───────────────────────────┼─────────────┼────────────────────────────────┤
│ trait_2 (Dense)               │ (None, 3)                 │         195 │ dense_3[0][0]                  │
├───────────────────────────────┼───────────────────────────┼─────────────┼────────────────────────────────┤
│ trait_3 (Dense)               │ (None, 3)                 │         195 │ dense_4[0][0]                  │
├───────────────────────────────┼───────────────────────────┼─────────────┼────────────────────────────────┤
│ trait_4 (Dense)               │ (None, 3)                 │         195 │ dense_5[0][0]                  │
└───────────────────────────────┴───────────────────────────┴─────────────┴────────────────────────────────┘
 Total params: 4,251,695 (16.22 MB)
 Trainable params: 4,209,608 (16.06 MB)
 Non-trainable params: 42,087 (164.41 KB)
Epoch 1/100
D:\signalyze\signalyze-personality-predictor\venv\lib\site-packages\keras\src\trainers\data_adapters\py_dataset_adapter.py:121: UserWarning: Your `PyDataset` class should call `super().__init__(**kwargs)` in its constructor. `**kwargs` can include `workers`, `use_multiprocessing`, `max_queue_size`. Do not pass these arguments to `fit()`, as they will be ignored.
…
